Reproducing experiment 'duple-rues'
Stage 'preprocess' didn't change, skipping
Running stage 'train':
> python scripts/train.py
DBG MSG: CUDA is Available.
Using CUDA device
==========================================================================================
Layer (type:depth-idx)                   Output Shape              Param #
==========================================================================================
NeuralNetwork                            [1, 1]                    --
├─ConstantPad1d: 1-1                     [1, 1, 174]               --
├─Conv1d: 1-2                            [1, 16, 14]               208
├─ConstantPad1d: 1-3                     [1, 16, 38]               --
├─Conv1d: 1-4                            [1, 16, 3]                3,088
├─LSTM: 1-5                              [1, 3, 36]                7,776
├─Linear: 1-6                            [1, 1]                    37
==========================================================================================
Total params: 11,109
Trainable params: 11,109
Non-trainable params: 0
Total mult-adds (Units.MEGABYTES): 0.04
==========================================================================================
Input size (MB): 0.00
Forward/backward pass size (MB): 0.00
Params size (MB): 0.04
Estimated Total Size (MB): 0.05
==========================================================================================
==========================================================================================
Layer (type:depth-idx)                   Output Shape              Param #
==========================================================================================
NeuralNetwork                            [1, 1]                    --
├─ConstantPad1d: 1-1                     [1, 1, 174]               --
├─Conv1d: 1-2                            [1, 16, 14]               208
├─ConstantPad1d: 1-3                     [1, 16, 38]               --
├─Conv1d: 1-4                            [1, 16, 3]                3,088
├─LSTM: 1-5                              [1, 3, 36]                7,776
├─Linear: 1-6                            [1, 1]                    37
==========================================================================================
Total params: 11,109
Trainable params: 11,109
Non-trainable params: 0
Total mult-adds (Units.MEGABYTES): 0.04
==========================================================================================
Input size (MB): 0.00
Forward/backward pass size (MB): 0.00
Params size (MB): 0.04
Estimated Total Size (MB): 0.05
…
